examples/tabular_classification_model.pt (torch, 459879 bytes, 241 tensors)

model.embedder.embeddings.0.weight f4 [3, 16]
000000 e4 99 e1 3d 05 16 25 3e 2b ea a7 3e b3 62 f9 3c
       0.110156804 0.16121681 0.32795843 0.030442571
000010 b2 47 00 bf 04 73 16 3e e0 3d 8d 3e d6 95 3b be
       -0.501094 0.14692312 0.2758627 -0.18318877
000020 14 1e 88 3e af 36 36 be a3 cb 34 bf 76 46 01 bf
       0.26585448 -0.17794298 -0.70623225 -0.5049814
000030 67 4b 08 bf d7 65 29 be fc 1c 9b 3e 10 41 db bf
       -0.53240055 -0.16542755 0.3029555 -1.712923
000040 98 46 be be d4 89 9c bf 1e f5 79 bf ae ca 04 bf
       -0.37163234 -1.2229562 -0.97639644 -0.51871765
000050 6c 2f d4 bf 6f 30 9d 3d 79 d3 bb be a8 d4 06 bf
       -1.6576972 0.076752536 -0.36684778 -0.5266824
000060 bd 00 a5 3e 1e 83 c4 bf 99 1b 9b 3f 03 5a c9 3e
       0.32227126 -1.5352514 1.2117797 0.39326486
000070 7a ec ba bf 95 f1 8b 3e 53 22 8a bf 3e 85 10 3f
       -1.4603417 0.2733275 -1.0791725 0.5645331
000080 09 e6 4e bf ab a9 c5 3e 66 80 77 be ac dd 93 bd
       -0.80819756 0.3860601 -0.24170074 -0.07220015
000090 c5 13 12 40 a4 b2 08 c0 5b f2 a5 3e 68 43 4b 3f
       2.2824566 -2.1359034 0.32411465 0.7939973
0000a0 86 98 2d bf f4 3a 4a bd d3 d5 43 bf cf 67 35 3e
       -0.6781086 -0.04937263 -0.76498145 0.17715381
0000b0 c2 47 68 be 2e d1 80 bf 73 f1 8c 3f 66 88 b1 bf
       -0.22683623 -1.0063837 1.1011184 -1.386975

model.embedder.embeddings.1.weight f4 [89, 16]
000000 75 ca 3a 3f a4 7e 61 bf 67 3c 8a bf 16 ea a0 bf
       0.72965175 -0.88083863 -1.0799683 -1.2571437
000010 8b 4b 63 bf 61 8b 96 bd 88 5f af be d5 07 bb 3f
       -0.88787144 -0.07350803 -0.34252572 1.4611765
000020 84 66 de 3f 29 41 01 bf 01 c2 ff 3f 86 2c 4f be
       1.7375035 -0.5049005 1.998108 -0.20231828
000030 64 85 88 3f 90 1d a2 3e 88 d3 e8 3e af b0 79 3c
       1.0665708 0.3166318 0.45473886 0.015239879
000040 9f 26 d8 be 82 eb 0e c0 8d db 9e 3e 18 c3 0b 3f
       -0.42216966 -2.2331243 0.3102688 0.54594564
000050 e4 55 fe 3e bf 13 c2 bf 4f 1d 6d 3f ef 12 83 3f
       0.49674904 -1.5162276 0.92622846 1.0240153
000060 73 eb c3 3e 99 01 63 3f 2f 32 c2 bf 84 4b fd 3e
       0.3826557 0.8867431 -1.5171565 0.49471676
000070 5e 03 12 c0 7f 50 5e be d8 d3 45 3f 3f a7 27 3e
       -2.2814555 -0.21710394 0.7727637 0.16372393
000080 e6 cf a6 3f 11 51 55 bf 53 24 fc bf e3 58 c1 3f
       1.3032196 -0.8332682 -1.9698585 1.5105251
000090 bf c2 e3 3f a0 dc c4 bf 8d 31 32 3f bf a8 16 bf
       1.7793807 -1.537983 0.6960686 -0.58851236
0000a0 1f 6c 30 3b 78 ef c9 be 82 d7 8d 3f 38 b5 bb 3e
       0.0026919914 -0.39440513 1.1081393 0.36661696
0000b0 57 8d ef bf 47 6e a9 bf 53 e8 40 bf de ff 22 bf
       -1.8715008 -1.3236779 -0.753545 -0.6367167
0000c0 ee fa 18 3f 37 d4 d5 3f eb a5 67 bf 16 91 fc 3e
       0.5975789 1.6705388 -0.90487546 0.49329442
0000d0 a5 c2 87 bf b0 62 fb bd b8 eb 66 3f d2 2b df bb
       -1.0606276 -0.122746825 0.9020343 -0.0068106437
0000e0 f7 3c 86 bf 87 33 b0 bf 73 4f 91 3e 02 16 c3 3f
       -1.0487355 -1.3765725 0.28380927 1.5241091
0000f0 82 4d 13 bf 57 bc d8 bf 40 f2 8e 3e a8 f7 34 3e
       -0.5754014 -1.6932477 0.27919197 0.17672598
000100 ea 50 1f 3f 74 01 68 3e 1e b2 11 bc 28 93 3d be
       0.6223284 0.22656804 -0.008892564 -0.18513167
000110 d7 69 f2 be ec 39 09 be 8c 1e 51 bf e3 50 75 3f
       -0.47346374 -0.13401002 -0.81687236 0.9582655
000120 cd 7e f6 3f 0e 97 9d bf d5 ed 7a 3f 1f cd 97 3d
       1.9257447 -1.2311723 0.9801915 0.074121706
000130 16 02 2d 3f 11 3e a8 3f fa 5a 35 bd 10 bb ff be
       0.6758131 1.3143941 -0.044276215 -0.49947405
000140 cd 72 18 bf 5b 55 16 bf 49 ff 09 be 0f 2d 29 c0
       -0.5955017 -0.5872399 -0.1347629 -2.6433752
000150 98 6f 96 bf c7 de df bf f5 7e f9 be f7 8b 03 3f
       -1.1752806 -1.7489861 -0.48729673 0.51385444
000160 b5 c3 a6 3d 26 0c de be e3 15 93 bd 99 38 1e 40
       0.08142797 -0.43368644 -0.07181909 2.4722044
000170 95 76 20 c0 2b 73 52 bf 05 8b 86 3e bf 2b 63 bf
       -2.5072377 -0.8220698 0.26277938 -0.88738626
000180 d6 88 02 bf 0d 88 74 bf c7 4a d5 bf f6 50 5d 3f
       -0.50990045 -0.95520097 -1.6663445 0.8645166
000190 76 4c 2f bf 14 a1 6f 3f 16 aa 73 be 3b 94 be 3e
       -0.68476045 0.9360516 -0.23795351 0.37222466
0001a0 c7 0b b0 3e ec 39 a0 3e b5 7f 8f 3e 5f 91 6c be
       0.34383985 0.3129419 0.2802712 -0.2310233
0001b0 d6 12 d4 3e 5c 0e a0 3f 53 bc 2d be 35 06 41 3f
       0.4142062 1.2504382 -0.16966371 0.75400096
0001c0 e7 49 ca bd cd 02 80 be b7 21 56 3f 02 ea 25 bf
       -0.09877377 -0.25002137 0.83645195 -0.6481019
0001d0 1d 09 c1 be 6f 56 cc 3e bd 76 66 be a4 df a2 be
       -0.37702265 0.39909694 -0.22506233 -0.3181125
0001e0 2b d7 bf bd f3 65 7c be 40 00 84 3e 91 29 34 bf
       -0.09367212 -0.24648266 0.2578144 -0.70375925
0001f0 09 b6 7d bf 51 bc 04 40 4f 11 20 3f 71 82 c4 bf
       -0.9910589 2.073994 0.6252641 -1.5352308
000200 e4 60 18 3f b3 1a 04 3f 0f c5 44 3f 5d 88 0d 3f
       0.59522843 0.5160324 0.7686319 0.552862
000210 a3 a3 3d be a1 6a 8d 3f a9 bd 33 be de f1 58 bf
       -0.18519454 1.1048166 -0.17552818 -0.8474406
000220 15 20 d2 bf f9 11 53 3e 13 8b e7 be c8 d2 49 bf
       -1.6416041 0.20612325 -0.45223293 -0.7883725
000230 00 35 2d bf e7 48 2e c0 8b 8b 28 40 1e 84 bd be
       -0.67658997 -2.7231996 2.633517 -0.3701486
000240 8e d7 1d 3f 2e cc d4 3e 75 f8 88 3f 1d 1c b9 3f
       0.61657035 0.41562027 1.0700823 1.4461704
000250 04 cc 84 bf 4f d5 76 bf e4 62 39 bf a8 92 c6 bf
       -1.0374761 -0.96419233 -0.7241652 -1.5513506
000260 f4 33 cc 3f c3 b4 8a 3f 49 64 15 bf ac fd 07 3e
       1.5953355 1.0836414 -0.5835615 0.13280362
000270 b1 14 3e bf 4e a0 7d be 0e 6b 32 bf 4d 96 bd be
       -0.7425032 -0.24768183 -0.696946 -0.37028733
000280 88 3e 4f bf 06 b6 a0 3f bc c4 53 3e c5 cc 1e 3e
       -0.8095479 1.2555549 0.20680517 0.15507801
000290 48 d7 cb 3f 3c 71 2f be 3c 27 0e 40 fc 08 04 be
       1.5925074 -0.17133039 2.2211447 -0.12894052
0002a0 d4 5c 2d bd 46 05 a3 bf b3 37 8b bf c0 d5 91 bf
       -0.042324856 -1.2735984 -1.0876373 -1.1393356
0002b0 20 12 73 3f 01 bb 02 3f 31 ba b2 3f 2d 73 1d bf
       0.9494953 0.51066595 1.3963071 -0.6150387
0002c0 e7 83 86 bf 75 1f 91 bf 18 13 aa bf fb 6e 25 3d
       -1.0509003 -1.1337725 -1.3287077 0.040389042
0002d0 25 ca 41 3f ad 1f 89 3f cd 7d 86 bf 17 51 ef be
       0.75699073 1.0712792 -1.0507141 -0.46741554
0002e0 4b 03 1e 3f b0 e6 7e 3f 5d 65 58 3f ac de cf 3e
       0.61723775 0.9957075 0.8452967 0.40599573
0002f0 db 57 67 bf 64 1c 2c 40 ce 9a 9c 3e 48 95 34 bf
       -0.9036843 2.6892328 0.30586857 -0.70540285
000300 d3 f0 8f be a2 f1 f5 be 33 69 79 bf 83 35 a6 3d
       -0.28113422 -0.48035914 -0.97426146 0.08115675
000310 9b 22 96 3f f4 a0 b9 bf 98 7a 2a c0 4a b4 8e 3f
       1.1729311 -1.4502244 -2.6637325 1.114877
000320 27 aa e2 bd 0d a5 70 bf 8f 3b 9d 3f 8e 13 62 3d
       -0.1106761 -0.9400185 1.2283801 0.05519443
000330 0a bd e2 3f 8f f0 a7 be 69 ac ff be 17 29 ca be
       1.771394 -0.3280072 -0.49936226 -0.39484474
000340 dd c7 5a 3f 4a 09 46 3f 7c 2c 6e 3d 3d 86 b1 3e
       0.8546122 0.77357924 0.058147892 0.34672728
000350 3b 5a e6 be 24 c6 9c 3d 95 bf 77 be 0e af c8 3e
       -0.44990715 0.0765498 -0.24194176 0.39196056
000360 b3 4b 08 40 f8 65 ff 3e e0 77 76 3f fe c9 2c be
       2.1296203 0.49882483 0.96276665 -0.16873929
000370 54 bb 98 bf 5b 27 86 3e 75 1a 45 bf 05 97 10 3e
       -1.1932168 0.262019 -0.76993495 0.1412011
000380 f4 a8 5b bf 3c 64 e6 bf 62 dc 0c 3e 58 89 1f bf
       -0.85804677 -1.7999339 0.13755944 -0.62318945
000390 78 68 cf 3e 24 1c 22 3e 00 f1 db 3e 0c 6e 6f bf
       0.4050939 0.15831047 0.42957306 -0.93527293
0003a0 04 fa d3 3e ae 7e ab 3f 68 d9 2b c0 79 5b 68 3f
       0.41401684 1.3398035 -2.6851444 0.90764576
0003b0 1a 3f 34 3d e7 a9 bf bf ca 96 64 bf 53 67 32 3e
       0.04400549 -1.4973725 -0.89292586 0.17422228
0003c0 47 e0 c6 be c8 32 14 3e 90 1d 5c 3f 61 0d 2f be
       -0.38842985 0.14472497 0.8598261 -0.17094947
0003d0 b7 44 d0 3e 91 6d af be 98 fb 88 be f5 10 34 3f
       0.40677425 -0.3426328 -0.2675445 0.70338374
0003e0 52 86 d0 3e c5 06 c4 3f fe fc 03 3f 50 e3 82 bf
       0.40727478 1.5314566 0.5155791 -1.022562
0003f0 f3 49 15 bf db b2 cf 3e 1a 73 0f bd 41 23 d6 3e
       -0.5831596 0.40566143 -0.03502188 0.41823772

model.embedder.embeddings.2.weight f4 [8, 16]
000000 fb c0 04 40 d4 67 e9 3f b4 f3 4f bc 38 d5 d6 3f
       2.0742786 1.8234811 -0.012692381 1.6783819
000010 f1 c9 a3 bf a3 31 1a 3f dc af 92 3f b9 57 45 bf
       -1.2796003 0.6023199 1.1459918 -0.7708698
000020 0c d0 56 3f 0e ec 12 3f 09 14 ea 3f 44 d3 82 3e
       0.83911204 0.5739144 1.8287364 0.25551808
000030 94 10 bf 3e 9f 29 42 3e b8 06 e0 be 2b ec 90 be
       0.37317336 0.1896119 -0.43755126 -0.28305182
000040 cd 8c 31 bf 35 ad bc 3f 9a 17 62 3f 40 f3 d7 3f
       -0.6935547 1.4740359 0.88317263 1.6871109
000050 5e 49 97 3f b8 53 96 3f 67 88 87 3f 64 37 a1 3e
       1.1819265 1.1744299 1.0588502 0.31487572
000060 a9 69 cf 3f 16 e1 48 bf ef e4 20 be ed ed 81 3e
       1.620412 -0.78468454 -0.15712331 0.25376835
000070 d4 c0 a4 bf 0c 1d 00 3f 75 0c 9d 3f 3a 5d 40 3f
       -1.2871346 0.5004432 1.2269427 0.7514225
000080 45 83 7a bd 36 e4 a9 3e 5b 4a 83 3e 38 28 fd be
       -0.061160345 0.33181924 0.25642666 -0.49444747
000090 11 c2 04 40 85 5a ba bf e3 94 9a be ed 46 47 3f
       2.0743449 -1.4558874 -0.30191717 0.778426
0000a0 52 70 03 bf 44 37 b9 bf 57 2e e4 3f 79 bf 0b 3f
       -0.5134326 -1.4469991 1.7826642 0.5458904
0000b0 fd 8b c6 be 91 27 a5 3f 12 ff 15 40 73 12 80 bf
       -0.38778678 1.29027 2.3436933 -1.000563
0000c0 60 33 98 3f 47 50 44 be 28 33 24 bf 65 e8 0a bf
       1.1890678 -0.19171248 -0.6414056 -0.54260856
0000d0 21 b2 b6 3f 0a 26 af 3f c9 37 66 3f 2f ea 9b 3f
       1.4273111 1.3683484 0.8992887 1.2180842
0000e0 a7 13 0b 3f 96 7a 71 bf c3 a1 d6 bf 85 de 2c be
       0.5432686 -0.94327676 -1.6768116 -0.1688176
0000f0 5f dd 5e bf dc a9 2e bf db 96 93 3d d8 6f 9a bd
       -0.87056535 -0.68227935 0.07206508 -0.07540864
000100 f6 02 94 3d fa 6c 98 3f c9 0f 7d bf 15 8f 9c 3d
       0.07227127 1.1908257 -0.9885221 0.07644478
000110 62 37 05 3f ca 66 a0 3f dd 68 b5 3f db 67 10 be
       0.5203763 1.2531369 1.4172627 -0.14102118
000120 5a 83 ca 3e cc f9 9b be f3 18 fe 3e 72 55 8e 3e
       0.39553338 -0.30464017 0.4962841 0.27799565
000130 a7 42 99 3f 4b e4 44 3f c4 ae b3 3f c1 ba 3c 3f
       1.1973466 0.7691085 1.4037709 0.73722464
000140 ab d7 0d 3e ae 31 9a be 51 ff 4a 3e 2e 3c 55 bf
       0.13851802 -0.30116028 0.19823958 -0.8329495
000150 40 de e7 3f f7 45 d8 3f ca 63 1d 3d 80 09 80 be
       1.81147 1.6896352 0.038425244 -0.25007248
000160 cf 77 b9 be 6a 06 18 be e3 95 2c 3f 96 3f 19 40
       -0.3622422 -0.14846197 0.6741621 2.394506
000170 10 d4 3f bf bf 93 e5 bd d8 24 fe 3e f2 67 62 bf
       -0.74932957 -0.11209821 0.49637485 -0.8843986
000180 16 14 79 3f 1f 10 28 bf 9c 51 93 3f 82 ee b7 be
       0.97296274 -0.656496 1.150928 -0.35924155
000190 d1 29 7a bf 5b 4c 61 3e fc 0b 05 3e b0 05 05 c0
       -0.97720057 0.22001784 0.12992853 -2.0784721
0001a0 22 66 7d 3f 49 b0 0b bf 18 d9 b6 3d 26 98 de 3f
       0.9898397 -0.54565865 0.08928126 1.7390182
0001b0 02 45 7f 3f 66 85 58 3f f4 74 83 3e a6 88 1e bf
       0.9971467 0.8457855 0.25675166 -0.6192726
0001c0 63 79 71 bf ac 94 36 3f 0f 93 54 bf bb 76 06 3f
       -0.94325846 0.71320605 -0.83036894 0.5252492
0001d0 25 69 4e bf e4 3a d4 3f 8b 61 ec 3e cc 14 88 3f
       -0.8062919 1.6580472 0.4616817 1.0631347
0001e0 d0 0f 3a 3f 64 52 c2 3f f5 5b e0 3f 8c fa 1c 3f
       0.7268038 1.5181394 1.7528063 0.61319804
0001f0 b7 5e 2c 3f ba 2b 4e bf 9d ca e6 3e 17 a2 83 3f
       0.67332023 -0.8053547 0.45076457 1.0283841

model.embedder.embeddings.3.weight f4 [8, 16]
000000 01 1f b9 bf 83 b2 7c 3f 6d 53 d6 3f 7e da e0 be
       -1.4462587 0.9870989 1.674421 -0.43916696
000010 4a 09 72 bf 03 e7 e0 3f ca 16 ef bf b7 66 77 3f
       -0.94545424 1.7570499 -1.867883 0.96641105
000020 15 c4 94 be f4 90 19 bf f3 54 72 3f 2e f7 38 bf
       -0.2905585 -0.59986806 0.9466087 -0.72252166
000030 66 6d 59 3d 30 ba 70 bf b0 71 cd 3e 8b 89 f4 bf
       0.053082846 -0.940341 0.401258 -1.9104475
000040 05 8d a4 be df 67 8b be a2 41 a5 3d 09 4c 3a bf
       -0.3213884 -0.27227685 0.08069159 -0.7277227
000050 c5 07 18 3f 81 f6 c5 3c 7a c7 36 3f ed 50 e3 be
       0.59386855 0.024165394 0.7139813 -0.4439768
000060 00 08 e0 bf 73 7d b0 be 11 1e 3e 3f f9 4d 0f 3f
       -1.7502441 -0.3447071 0.7426463 0.5597835
000070 f7 27 bb 3f 0a 2c 10 bf 61 fd 90 bf 64 4a 86 bf
       1.4621571 -0.563172 -1.1327325 -1.0491452
000080 05 05 ac 3f 6e 1b 54 bf fb 4a 39 3f be 00 46 bf
       1.3439032 -0.82854354 0.72380036 -0.7734488
000090 8f e5 58 3e 48 58 14 be 66 ff b0 be 15 84 13 3f
       0.2118132 -0.14486802 -0.34569854 0.57623416
0000a0 93 16 98 3f cc 49 c4 3e 73 8a 2d bf fc bc 14 be
       1.1881889 0.38337553 -0.6778938 -0.14525217
0000b0 42 f6 94 bf fa 1d d5 3e 81 e2 d5 be 99 bd bd be
       -1.1637652 0.41624433 -0.4177437 -0.37058714
0000c0 0b 1e a8 bf f7 2c 07 bf b7 83 ea 3f 7c e4 3a 3f
       -1.3134168 -0.52802986 1.8321446 0.7300489
0000d0 ef 80 2a bd c1 83 26 bf fc 84 88 3f 26 cd 98 3f
       -0.041626867 -0.6504479 1.0665584 1.1937606
0000e0 bb 70 ab be e5 6f ae be 58 e6 15 bf 30 a6 8f 3f
       -0.33484444 -0.34069744 -0.585546 1.1222591
0000f0 09 ab e1 3f 45 ee 61 bd a3 02 6e be d4 ab 88 3f
       1.7630321 -0.055158872 -0.23243193 1.0677438
000100 85 64 f9 3f 84 01 53 bf c9 02 8a bf 71 d4 38 bf
       1.9483801 -0.8242419 -1.07821 -0.7219916
000110 3c 78 bb be e9 11 8f 3f f3 fd ea be be 55 41 3f
       -0.3661517 1.1177341 -0.45896873 0.7552146
000120 bf 02 af 3e 78 33 77 be 7b 18 2e 3f 9d 78 84 3f
       0.34181783 -0.24140728 0.68006104 1.0349308
000130 c0 10 34 3f 71 d6 31 be 0b be 0c bf 10 32 32 bf
       0.7033806 -0.17366959 -0.5497748 -0.6960764
000140 fb 57 28 3f e0 29 f3 bf 80 6d 82 be c0 e0 17 be
       0.6575925 -1.8997154 -0.25474167 -0.14831829
000150 e9 4e 26 bd ba fa 1a bc 39 06 f3 3d 73 7a c3 bd
       -0.0406026 -0.009459192 0.11866421 -0.0954484
000160 32 44 f5 be a8 a6 a9 bf 87 c1 25 3f 29 5d d8 be
       -0.4790359 -1.3253984 0.64748424 -0.42258576
000170 27 0b 80 bd 77 6a dc 3f 62 7d c0 3e a6 20 65 3f
       -0.06252127 1.721999 0.3759566 0.8950294
000180 e0 81 9a be c3 e1 c2 be 23 a4 13 bf ec 57 60 3f
       -0.30177212 -0.38062868 -0.5767233 0.8763416
000190 9e be d7 3f 59 8b 97 3f cf ae 92 3f 39 5c 75 bf
       1.6855047 1.18394 1.1459597 -0.95843846
0001a0 35 7f a4 bf 88 b8 82 3f e5 92 0a 3f 53 03 16 3f
       -1.285132 1.0212564 0.54130393 0.5859882
0001b0 dc 1d 82 3f 25 f5 97 be d3 4a 75 3f 13 b2 f7 3f
       1.0165362 -0.29679218 0.958173 1.9351219
0001c0 dd e2 97 bf 31 c0 97 3f ab 3d c0 3f 95 45 92 3f
       -1.1866108 1.1855527 1.501882 1.1427485
0001d0 6f 31 25 be 8b 7c 20 3f fd 2b 8b 3f e9 57 09 bf
       -0.16132139 0.6269004 1.0872799 -0.53649765
0001e0 64 7c 8e 3e cc c1 85 bf 61 cd be 3e 37 f6 5a 3d
       0.27829278 -1.0449767 0.37266067 0.053457465
0001f0 f9 dd 09 be 05 11 a5 3f 93 50 3b 3f 61 27 3e 3f
       -0.13463582 1.2895819 0.7316982 0.7427884

model.embedder.embeddings.4.weight f4 [682, 16]
000000 8c d8 12 3f 6a 0e 59 bf 6f 48 1f 3d cd 2c ea bf
       0.57361674 -0.8478762 0.038887437 -1.8294922
000010 d3 13 f4 bf cc a8 f3 3d 91 b3 2d 3f f3 80 8e 3d
       -1.906855 0.1189743 0.6785212 0.06958189
000020 ab ac a5 3f 27 ce 87 3f be 43 cc bf 5f 12 ae 3f
       1.2943319 1.0609788 -1.5958173 1.3599356
000030 f3 1c 79 3e 75 db 86 3f 53 28 11 3f 28 18 05 c0
       0.2432745 1.0535723 0.56702155 -2.0795994
000040 50 13 a7 bf 2e 3d a8 bf 9f 88 67 bf ec d0 a8 be
       -1.3052769 -1.314367 -0.9044284 -0.32971895
000050 4e 29 37 bf 58 bb 60 bf 93 4d 02 3f a8 cc 7e 3f
       -0.715474 -0.87785864 0.5089962 0.9953103
000060 36 b2 10 3f da 05 b7 3f 8c e0 1c bf 81 fc 3c bf
       0.5652193 1.4298661 -0.6128013 -0.7382279
000070 16 09 56 bd 6f 36 d6 3e 0d bc be 3f 74 28 c3 be
       -0.05225476 0.41838405 1.4901139 -0.381168
000080 9d 02 ce bf 21 24 6c 3f 9f e2 85 bf 20 44 be 3e
       -1.6094548 0.9224263 -1.0459784 0.3716135
000090 5f bf a5 3f f6 40 52 be 7c 15 90 3f 64 2c 17 bf
       1.2949027 -0.20532593 1.1256557 -0.5905211
0000a0 d3 25 5c 3f 52 d4 9f 3e a4 3e f3 3f e8 c1 7d bf
       0.85995215 0.31216675 1.9003491 -0.99124
0000b0 65 88 86 3c 2e 37 12 40 98 35 70 3e c5 0e 1b bf
       0.01642246 2.284618 0.23457944 -0.6056941
0000c0 7b 45 d7 bf 32 50 00 3f 72 2a 2e bf 72 3c fa bf
       -1.6818079 0.5012237 -0.68033516 -1.9549696
0000d0 dd b3 98 3f 3b f6 f1 be ec 7e 63 3f 9f 3c c9 3d
       1.192989 -0.4725817 0.8886554 0.09826016
0000e0 36 a6 2a c0 0c b9 7d 3f a3 4e 45 bf 49 8b d2 bf
       -2.6663947 0.99110484 -0.77073115 -1.6448756
0000f0 ff f1 20 3f 69 1d 5a be f5 1b ac be 2d e8 00 bf
       0.62869257 -0.21300282 -0.3361508 -0.5035427
000100 82 7d 88 bf 17 00 87 3f db 99 01 3f 8f 7f f2 bf
       -1.0663302 1.0546902 0.5062539 -1.8945178
000110 31 0b cb 3d eb 38 65 3e 8a fa b8 bf c4 d2 36 bf
       0.09914244 0.22384994 -1.4451458 -0.7141535
000120 d3 f5 46 3f 71 dd ae 3f ae 79 5e be 2d 28 13 bf
       0.7771885 1.3661329 -0.21726105 -0.5748318
000130 a0 83 5b bf 68 be d1 3e 1b 2f e0 bf 31 1d 3f bf
       -0.8574772 0.4096558 -1.7514375 -0.7465392
000140 57 13 f2 3e 56 9e 4b 3f ea 46 6b bf d6 7b f4 be
       0.4728038 0.79538476 -0.9190508 -0.4775073
000150 59 37 d1 3e bd 67 b8 be 81 e5 94 be 31 c8 f8 be
       0.4086254 -0.36016646 -0.29081348 -0.48590234
000160 a4 db 56 3e f8 8d 4c 3f 1c 6c ac be b3 d3 6c be
       0.20982224 0.7990413 -0.3367623 -0.23127632
000170 fd b5 0a bf 87 33 8e 3f dd bd 50 40 ba 44 0f bf
       -0.5418394 1.1109475 3.2615883 -0.55964243
000180 fc bf 0e c0 03 b4 10 3e 71 8e 00 c0 84 1a 18 bf
       -2.2304678 0.14131169 -2.008694 -0.5941546
000190 83 50 d4 3d 41 7f 92 3f ea c1 fd 3e b4 33 64 bf
       0.10366919 1.1445085 0.49562007 -0.8914139
0001a0 43 c0 9b 3f c5 60 9f 3d e9 e3 1a 3e 49 bc 07 c0
       1.2168049 0.07782129 0.15126003 -2.120867
0001b0 33 56 c2 bf 3c c5 17 3f f8 e6 a3 3e a1 18 f8 bf
       -1.5182556 0.5928533 0.32012153 -1.9382516
0001c0 bf 38 c5 3e 10 cb 80 3c ce 24 52 3f 7e e0 f4 3e
       0.38519856 0.015721828 0.8208741 0.47827524
0001d0 b2 27 79 3f ec 5b 04 3f f9 57 ac bd 04 a1 d4 3f
       0.97326195 0.5170276 -0.08415217 1.6611638
0001e0 d0 96 fb be ad af 68 3b d0 21 9f be 52 4b 0e be
       -0.49138498 0.0035505102 -0.31080484 -0.1389592
0001f0 95 2c 81 bf b5 91 56 be 73 88 82 3f 5a 7a f4 3e
       -1.009173 -0.2095402 1.0197891 0.47749597
000200 0b 90 86 bf 88 dd 96 bf a2 95 e7 bf 38 9f 82 3d
       -1.0512708 -1.1786356 -1.8092539 0.06378025
000210 a1 e5 54 be 0c 1b bd 3e e7 fc 5d 3f 12 7b b5 bf
       -0.20790721 0.36934698 0.86714023 -1.4178183
000220 aa 86 95 3f 00 e7 06 bf 6f 9e 11 bf f3 d2 c7 be
       1.1681721 -0.5269623 -0.56882375 -0.3902813
000230 20 14 87 bf 2e 36 c4 bf 13 26 4d 3d 49 73 ba 3e
       -1.0553017 -1.5329034 0.05008514 0.3641608
000240 40 30 20 3f ce 2a db 3f 87 c0 73 3f f9 72 13 c0
       0.62573624 1.7122438 0.9521565 -2.3038924
000250 c6 c6 7e bd 45 e1 cd 3b 56 17 3c 3f 60 38 95 bf
       -0.062201284 0.0062829577 0.7347311 -1.1657829
000260 8f d0 ac bf d1 7b b0 bf 41 44 a3 bd 4e 5f a1 bf
       -1.3501147 -1.3787786 -0.07972003 -1.260721
000270 de 7b 1b 3f f6 47 ad bf 4d a5 9c 3f 9b 38 37 bf
       0.6073588 -1.3537586 1.2237946 -0.7157075
000280 c9 56 29 bf 58 4a d1 3e e3 35 8a be 40 2b 6b be
       -0.6614805 0.40877032 -0.26994237 -0.22965717
000290 00 3d 07 3f 2b 10 22 c0 04 0a 01 3d ec b1 e7 bb
       0.52827454 -2.5322368 0.031503692 -0.0070707705
0002a0 2f c9 95 bf 96 7a 5b bf 4f bd 1f bf f9 4f 49 3d
       -1.1702021 -0.85733926 -0.62398237 0.049148533
0002b0 0e c4 d6 3f 4b fe b6 3e 88 e4 8e bf fe ba 3f bf
       1.6778581 0.35740885 -1.1163492 -0.748947
0002c0 3b 80 ab 3e c3 79 2e 3f cf ee bf 3e fe f4 b7 3f
       0.3349627 0.68154544 0.37486884 1.4371641
0002d0 8b 60 d5 bf 2e 3e 5b 3d 8a ff 6b be 14 20 0e 40
       -1.6670088 0.053526096 -0.23046699 2.220708
0002e0 c0 d8 7e 3f 48 78 d8 3e ca 8b e2 bd ce 07 23 3f
       0.99549484 0.42279267 -0.11061819 0.63683784
0002f0 48 9a a5 bf d6 e9 11 40 58 b9 81 bf 60 3d fe 3d
       -1.2937708 2.2798972 -1.0134687 0.1241405
000300 45 f8 d0 3e 5b a5 0a bf 70 a4 a1 be 05 ff 08 bf
       0.40814415 -0.5415856 -0.31570768 -0.5351413
000310 bd 51 a4 bf 1c 01 0a 3e 65 98 f0 bd d8 c8 ee be
       -1.2837445 0.13476986 -0.11747817 -0.46637607
000320 6b 21 ad 3e 0b ff 32 bf e4 4a 58 3e 00 26 ad 3d
       0.33814558 -0.69920415 0.21122319 0.084545135
000330 ef e9 57 3f 71 cf 8f 3e 8d 18 e3 bf 16 74 9d bf
       0.8434133 0.28087953 -1.7741867 -1.2301052
000340 e9 d4 e8 3f e3 e3 db be d8 92 40 c0 6c 0c 8c be
       1.8189975 -0.429473 -3.0089626 -0.27353227
000350 87 5b 29 3f 3f bc da 3f 80 43 9d bf 85 78 ef be
       0.66155285 1.7088698 -1.2286224 -0.46771637
000360 a1 4f b8 bf 27 0f 12 40 4b 31 26 be b8 ba 8f 3f
       -1.4399301 2.2821748 -0.16229741 1.1228857
000370 b0 38 1b bf 01 4f 43 3f e9 98 a8 be 1b 1a d3 3f
       -0.60633373 0.76292425 -0.3292916 1.6492342
000380 74 09 0f 3f 1c e6 7d 3e cc 35 c5 bf a8 23 e5 3e
       0.558738 0.24794811 -1.5407043 0.44753766
000390 59 d4 41 bf 5d 03 11 bf 20 ae 97 be 56 91 be bf
       -0.7571464 -0.56645757 -0.29625034 -1.4888103
0003a0 d5 64 a6 3f a5 8c 4d 3f bb 9b 16 bf c8 74 60 bf
       1.2999521 0.8029273 -0.58831376 -0.87678194
0003b0 7f cc 44 3f 9b cc ba bf bb 7e 65 bf a1 0a 9b be
       0.76874536 -1.4593691 -0.896465 -0.30281547
0003c0 22 ff da bd c9 ea ef bf 92 c1 ef bf 3a c4 b4 3f
       -0.10693194 -1.8743526 -1.8730948 1.4122384
0003d0 cb 15 8c 3f dc 9f 9e 3d 92 4e 3f bf 58 fa 14 3f
       1.0944151 0.077453345 -0.74729264 0.58194494
0003e0 fd 41 a7 bd 60 07 96 3f 61 27 ad be fe 5f 42 3f
       -0.08166883 1.1721001 -0.33819106 0.7592772
0003f0 36 4f b6 3e a4 60 a0 3f fb 4d 92 3d 1e f9 34 3d
       0.35607308 1.2529492 0.0714378 0.04418289

model.embedder.embeddings.5.weight f4 [148, 16]
000000 a0 36 34 3f 16 ad 93 3f 41 aa 5f 3c a0 ca b4 3f
       0.7039585 1.1537197 0.013651432 1.4124336
000010 13 b4 11 be 06 bb 02 bf 1b ed 1c 3f 5e 03 e0 bf
       -0.14228849 -0.51066625 0.61299294 -1.7501028
000020 b4 9d 5b bf 61 80 6f 3f c1 58 29 bf d4 59 28 3f
       -0.8578751 0.93555266 -0.6615105 0.65762067
000030 b8 4a f0 bf 0b b4 e5 3e 69 3e 24 3e 65 dd 2b 40
       -1.8772802 0.44863924 0.16039433 2.6853878
000040 ac f4 10 bf 3f b6 33 3f c2 c3 10 40 62 56 87 3f
       -0.5662334 0.7019996 2.261948 1.0573237
000050 6c a7 cd 3c f3 b8 7b 3f 60 04 03 c0 cb 11 a1 bf
       0.025104247 0.98329085 -2.047142 -1.2583555
000060 21 fa 22 3e b2 45 e3 3d ed e6 98 3f 8d 8e 14 bf
       0.15915729 0.11097278 1.1945473 -0.58030015
000070 ea 52 98 3f 99 29 40 3f 05 e7 5d 3e 6f 9d bd 3e
       1.1900303 0.75063473 0.21670158 0.37034175
000080 c1 13 4f 3f 24 69 a3 bf 29 3c 9a 3f 48 ea 74 be
       0.8088952 -1.2766461 1.204961 -0.23917496
000090 91 f8 e6 3d 8e 6b 16 3e d9 ad 59 3e 70 f0 ac be
       0.11277879 0.14689466 0.21257724 -0.3377719
0000a0 3b 00 08 40 ab f9 c0 3e 00 42 bb 3f ce 54 79 bf
       2.125014 0.37690482 1.4629517 -0.97395027
0000b0 fe e6 d3 be 5f 37 3a 3f ee 35 ce be ad 54 00 c0
       -0.4138717 0.7274074 -0.4027552 -2.0051682
0000c0 93 b0 34 bf 6e ac 07 3f 67 d1 65 bf f3 75 f0 be
       -0.7058193 0.5299748 -0.8977265 -0.46964988
0000d0 93 38 55 bf 6c 91 28 3d 0d ca 82 3f fb a7 23 3d
       -0.8328945 0.04115431 1.0217911 0.03995512
0000e0 df 21 dc 3e 16 82 bd bd d7 19 bd be d7 62 9a bf
       0.42994592 -0.092533275 -0.36933777 -1.2061414
0000f0 70 d6 24 3f d4 7a ae 3f 05 53 86 3f 20 4e 62 3e
       0.64389706 1.3631234 1.0494086 0.22100115
000100 8a e0 81 3f 14 bc 06 bd 67 ab 40 3d ed 57 09 bf
       1.0146649 -0.03289421 0.047038462 -0.5364979
000110 c7 90 bd 3f 12 3f 81 3d 16 cc 76 3f 04 3e c0 3f
       1.4809808 0.06310858 0.9640516 1.5018926
000120 e7 4b d5 b9 b6 76 a3 3f c9 9b 82 bf b6 50 26 3f
       -0.00040683078 1.2770603 -1.0203792 0.64966905
000130 19 70 f3 3f f2 c0 58 bf cc 93 68 3e b2 67 8c 3f
       1.9018584 -0.8466941 0.2271263 1.0969145
000140 5c 22 83 bf ae 51 3c 3f b0 86 33 3e ad 26 30 bf
       -1.0244861 0.73562133 0.17531848 -0.68809015
000150 cd 7b fe be 19 66 f7 3d 73 72 20 3f c1 60 af 3f
       -0.49703828 0.120800205 0.62674636 1.3701402
000160 f2 a5 fc 3d 92 5d 4a 3e db bf 79 3e b8 a3 89 3f
       0.12336339 0.19762257 0.24389593 1.0753088
000170 b5 76 6f 3f 10 18 8f bf b1 2e 22 bf 9e 91 d0 3b
       0.9354051 -1.1179218 -0.63352495 0.006365015
000180 49 68 36 bf b2 b7 23 c0 d1 ce 56 3f 1f 17 80 3f
       -0.71252877 -2.5580869 0.83909327 1.0007056
000190 8b 1f 84 3c c5 51 89 bf 45 f4 a3 be 7b b2 91 bf
       0.016128322 -1.0728079 -0.320223 -1.1382593
0001a0 28 88 c6 3f ab 81 b3 3f c8 73 0a be 82 e2 8b be
       1.5510302 1.4023947 -0.1352073 -0.2732125
0001b0 43 21 69 3f 7b 92 6f 3f d3 44 92 bf 3c ef de 3e
       0.9106638 0.93582886 -1.1427253 0.43541896
0001c0 99 f0 f3 be 3c ff d9 3e 6a 55 12 3f 2b c0 17 c0
       -0.476445 0.4257754 0.5716158 -2.371104
0001d0 80 5f 17 bf 4c b5 ff be 34 78 2a bf 7b da b5 3f
       -0.59130096 -0.49943006 -0.66589665 1.42073
0001e0 7f 98 24 bf eb 8c e7 3d e5 22 ec 3d dd 63 b0 3e
       -0.6429519 0.11306175 0.11530093 0.3445119
0001f0 e7 9b 56 3e 69 21 41 c0 ef 7b a4 bf 90 68 44 bf
       0.2095791 -3.0176642 -1.2850322 -0.7672205
000200 0d 08 b6 3f 35 e4 7e 3e 4f 52 eb bf c6 38 9f 3f
       1.4221207 0.24891742 -1.8384494 1.2439201
000210 12 5e 03 40 33 73 10 bf 09 35 e1 3e 63 d5 1d bf
       2.0526166 -0.5642578 0.43985775 -0.6165373
000220 fb 2d 93 bf 06 0f f1 bd 28 63 12 bf 9b c4 97 3e
       -1.1498407 -0.117704436 -0.5718255 0.29642186
000230 72 b2 85 bf 8d d0 c4 be 2b 78 1c bf 7b d2 ab bf
       -1.0445082 -0.38440362 -0.6112086 -1.3423609
000240 d2 7c d5 3e 7c a3 d5 3f d5 8f d7 3e e8 e8 9a 3f
       0.41696793 1.6690516 0.42101923 1.2102327
000250 16 23 f6 bf 94 b7 c4 bf c5 35 85 be 4b 37 2e bf
       -1.9229457 -1.5368524 -0.26017585 -0.6805312
000260 d0 50 c7 3f 05 bb a9 bf e7 72 dd bf 4c 7b 49 bf
       1.5571537 -1.3260199 -1.730069 -0.7870376
000270 82 33 07 3f c2 e3 15 3f c2 7d 4a 3e b8 59 ed be
       0.5281297 0.58550656 0.19774535 -0.46357512
000280 a6 af f5 3e a9 ca 43 3d 01 a3 54 be 45 e6 34 be
       0.47985572 0.047800694 -0.20765306 -0.17665966
000290 90 c8 b0 3d cb ca 8f bf 7e 49 b3 bf c3 03 4f 3f
       0.08632004 -1.1233763 -1.4006803 0.80865115
0002a0 92 66 1d 40 cb 8f fd 3d d2 a2 ef 3e 7e 6b 71 be
       2.4593854 0.12380942 0.4680391 -0.23576161
0002b0 2a 51 97 bf 44 1d 4d bf 87 c0 72 3e d7 7c 0b bf
       -1.1821644 -0.8012278 0.23706256 -0.54487365
0002c0 25 66 27 3e 00 69 a4 3e 3b 14 84 3e aa 8b e7 3f
       0.16347559 0.3211136 0.25796685 1.8089497
0002d0 98 db 09 40 f1 92 6d 3f fa e0 b0 be 30 14 a6 bf
       2.154028 0.9280234 -0.34546643 -1.2974911
0002e0 6b 7a 05 3d d6 e4 77 bf 80 1c ad 3d f0 96 c3 3f
       0.03258745 -0.9683355 0.084527016 1.5280437
0002f0 b2 43 05 bf 33 e9 a0 bf 70 fb ac bf 6b 65 67 bf
       -0.5205642 -1.2571167 -1.3514233 -0.90389127
000300 a7 64 ae be 65 e5 f0 be 0e 91 2a be 0b 24 71 bf
       -0.34061167 -0.47050014 -0.16656896 -0.9419562
000310 a2 ec 0b 40 93 a8 9a 3f d1 1c 98 be e0 fd 10 3f
       2.186318 1.2082695 -0.29709485 0.5663738
000320 32 e6 fa be 6f 95 fe 3e 5c 4d 35 bf c2 56 9e be
       -0.4900375 0.49723384 -0.70821166 -0.30925566
000330 1d 2c 01 40 8f 47 15 be c8 94 be bf 63 9a 99 be
       2.0183175 -0.14578079 -1.4889154 -0.300006
000340 95 5d 8b be cd 4e 27 be 3d 27 4a be df 26 b3 3e
       -0.27219835 -0.16338654 -0.1974153 0.34990594
000350 5f 4e 39 bf f1 96 7d 3e 8f c0 9c 3f da 82 46 bf
       -0.7238521 0.24764611 1.2246264 -0.77543414
000360 a0 22 69 bf a8 2c 9a bf f2 fa 61 3f af 3b dc bd
       -0.9106846 -1.2044878 0.8827354 -0.10753571
000370 07 96 0c 3f 50 21 68 3f f0 e2 04 bf c2 29 8f bf
       0.54916424 0.9067583 -0.5190878 -1.1184618
000380 c7 fc f1 be e2 b6 98 bf 92 22 81 3e b4 95 a1 3f
       -0.47263166 -1.1930811 0.25221688 1.2623811
000390 b2 6e d4 bf a8 b3 9e 3f 7f 4c d4 3f b2 1b 13 40
       -1.6596282 1.2398577 1.6585845 2.2985654
0003a0 83 29 5a 3f 93 49 e9 3f 67 da b6 be 58 b6 2d 3f
       0.8521959 1.8225578 -0.35713503 0.6785636
0003b0 8a cf e2 3e e8 ba 7c 3f 09 0a b5 bf 7f 63 89 3f
       0.44298965 0.98722696 -1.4143687 1.0733489
0003c0 b3 a7 1b be ed 32 af bf b5 2c 58 3e 7f 6e 3f 3e
       -0.15200691 -1.3687416 0.21110804 0.18694495
0003d0 a8 0f 65 3f 82 00 d0 be 66 3a f0 be eb a5 90 bb
       0.89477015 -0.40625387 -0.46919554 -0.00441431
0003e0 12 8a 1c bf e2 3e b6 3f 67 d2 a8 be 31 94 04 3f
       -0.6114818 1.423794 -0.32973024 0.5178862
0003f0 90 65 ee be c4 0a 91 bf c9 64 95 3f d5 ed 0c be
       -0.4656186 -1.133141 1.1671382 -0.137626

model.embedder.embeddings.6.weight f4 [4, 16]
000000 bd 7b 05 3f c3 66 8d 3f 1a 4d e9 3e 11 d9 07 3e
       0.52141935 1.1046985 0.45566636 0.13266398
000010 e4 61 14 c0 cf 6a cd 3d b4 cc f3 be 95 ed 86 3f
       -2.3184748 0.10030138 -0.47617114 1.0541254
000020 1c fc 83 bf 2a 75 c8 3e 29 78 a7 3e 30 01 14 3f
       -1.0311313 0.3915189 0.32708862 0.5781431
000030 e6 80 12 3f 51 9b e9 3e 69 0b 60 bf ea 2c 53 3f
       0.57227933 0.4562631 -0.8751741 0.8249041
000040 0b 31 99 be 08 e1 c3 bf af 5c 49 be 81 c9 dd 3f
       -0.2992023 -1.5303049 -0.19664262 1.7327119
000050 96 cc ae 3f 12 4d 0b c0 e0 d4 ec be d9 d9 c8 3e
       1.3656185 -2.176579 -0.4625616 0.39228705
000060 25 29 eb bf 33 c3 b6 3f 6c f1 1e 3f 96 fd ac 3f
       -1.8371931 1.427832 0.6208713 1.3514888
000070 f6 95 f2 3d a0 2e 25 bf 68 cd 62 bf 63 39 d6 3e
       0.11845009 -0.6452427 -0.88594675 0.41840658
000080 ab dc c9 3e 1d c6 0c 40 ff 1a 6c bf 06 b3 05 c0
       0.3942617 2.1995919 -0.9222869 -2.0890517
000090 77 d5 87 be e3 dd 18 3f 4b 20 1c bf ce 92 19 3f
       -0.26530048 0.5971357 -0.60986775 0.5998963
0000a0 dc b3 1f bf 38 eb a2 3f 11 55 bf 3e 0e bc 86 3f
       -0.6238382 1.2728033 0.37369588 1.052614
0000b0 92 0e ad 3f 54 c4 a1 3f d9 85 c0 3f 5c 71 64 bf
       1.3520072 1.263804 1.5040847 -0.8923547
0000c0 5f 69 33 bf 45 2a 96 bf ba 7a 75 3e 24 58 c4 be
       -0.7008266 -1.173165 0.23972598 -0.38348496
0000d0 62 f0 97 3f 44 36 08 3f 4c f3 1b 3f eb ce 58 bf
       1.1870234 0.532078 0.60918117 -0.8469073
0000e0 fd 17 c1 bd 4e 83 86 3e 4a 97 82 bf b4 4c cd 3e
       -0.094284035 0.26272053 -1.020242 0.40097582
0000f0 de 89 be bf 60 4f 90 bf 3d 37 6b 3e 15 7d 19 bf
       -1.4885824 -1.1274223 0.2297029 -0.59956485

model.tabnet.initial_bn.weight f4 [113]
000000 00 00 80 3f 00 00 80 3f 00 00 80 3f 00 00 80 3f
       1.0 1.0 1.0 1.0
000010 00 00 80 3f 00 00 80 3f 00 00 80 3f 00 00 80 3f
       1.0 1.0 1.0 1.0
000020 00 00 80 3f 00 00 80 3f 00 00 80 3f 00 00 80 3f
       1.0 1.0 1.0 1.0
000030 00 00 80 3f 00 00 80 3f 00 00 80 3f 00 00 80 3f
       1.0 1.0 1.0 1.0
000040 00 00 80 3f 00 00 80 3f 00 00 80 3f 00 00 80 3f
       1.0 1.0 1.0 1.0
000050 00 00 80 3f 00 00 80 3f 00 00 80 3f 00 00 80 3f
       1.0 1.0 1.0 1.0
000060 00 00 80 3f 00 00 80 3f 00 00 80 3f 00 00 80 3f
       1.0 1.0 1.0 1.0
000070 00 00 80 3f 00 00 80 3f 00 00 80 3f 00 00 80 3f
       1.0 1.0 1.0 1.0
000080 00 00 80 3f 00 00 80 3f 00 00 80 3f 00 00 80 3f
       1.0 1.0 1.0 1.0
000090 00 00 80 3f 00 00 80 3f 00 00 80 3f 00 00 80 3f
       1.0 1.0 1.0 1.0
0000a0 00 00 80 3f 00 00 80 3f 00 00 80 3f 00 00 80 3f
       1.0 1.0 1.0 1.0
0000b0 00 00 80 3f 00 00 80 3f 00 00 80 3f 00 00 80 3f
       1.0 1.0 1.0 1.0
0000c0 00 00 80 3f 00 00 80 3f 00 00 80 3f 00 00 80 3f
       1.0 1.0 1.0 1.0
0000d0 00 00 80 3f 00 00 80 3f 00 00 80 3f 00 00 80 3f
       1.0 1.0 1.0 1.0
0000e0 00 00 80 3f 00 00 80 3f 00 00 80 3f 00 00 80 3f
       1.0 1.0 1.0 1.0
0000f0 00 00 80 3f 00 00 80 3f 00 00 80 3f 00 00 80 3f
       1.0 1.0 1.0 1.0
000100 00 00 80 3f 00 00 80 3f 00 00 80 3f 00 00 80 3f
       1.0 1.0 1.0 1.0
000110 00 00 80 3f 00 00 80 3f 00 00 80 3f 00 00 80 3f
       1.0 1.0 1.0 1.0
000120 00 00 80 3f 00 00 80 3f 00 00 80 3f 00 00 80 3f
       1.0 1.0 1.0 1.0
000130 00 00 80 3f 00 00 80 3f 00 00 80 3f 00 00 80 3f
       1.0 1.0 1.0 1.0
000140 00 00 80 3f 00 00 80 3f 00 00 80 3f 00 00 80 3f
       1.0 1.0 1.0 1.0
000150 00 00 80 3f 00 00 80 3f 00 00 80 3f 00 00 80 3f
       1.0 1.0 1.0 1.0
000160 00 00 80 3f 00 00 80 3f 00 00 80 3f 00 00 80 3f
       1.0 1.0 1.0 1.0
000170 00 00 80 3f 00 00 80 3f 00 00 80 3f 00 00 80 3f
       1.0 1.0 1.0 1.0
000180 00 00 80 3f 00 00 80 3f 00 00 80 3f 00 00 80 3f
       1.0 1.0 1.0 1.0
000190 00 00 80 3f 00 00 80 3f 00 00 80 3f 00 00 80 3f
       1.0 1.0 1.0 1.0
0001a0 00 00 80 3f 00 00 80 3f 00 00 80 3f 00 00 80 3f
       1.0 1.0 1.0 1.0
0001b0 00 00 80 3f 00 00 80 3f 00 00 80 3f 00 00 80 3f
       1.0 1.0 1.0 1.0
0001c0 00 00 80 3f
       1.0

model.tabnet.initial_bn.bias f4 [113]
000000 00 00 00 00 00 00 00 00 00 00 00 00 00 00 00 00
       0.0 0.0 0.0 0.0
000010 00 00 00 00 00 00 00 00 00 00 00 00 00 00 00 00
       0.0 0.0 0.0 0.0
000020 00 00 00 00 00 00 00 00 00 00 00 00 00 00 00 00
       0.0 0.0 0.0 0.0
000030 00 00 00 00 00 00 00 00 00 00 00 00 00 00 00 00
       0.0 0.0 0.0 0.0
000040 00 00 00 00 00 00 00 00 00 00 00 00 00 00 00 00
       0.0 0.0 0.0 0.0
000050 00 00 00 00 00 00 00 00 00 00 00 00 00 00 00 00
       0.0 0.0 0.0 0.0
000060 00 00 00 00 00 00 00 00 00 00 00 00 00 00 00 00
       0.0 0.0 0.0 0.0
000070 00 00 00 00 00 00 00 00 00 00 00 00 00 00 00 00
       0.0 0.0 0.0 0.0
000080 00 00 00 00 00 00 00 00 00 00 00 00 00 00 00 00
       0.0 0.0 0.0 0.0
000090 00 00 00 00 00 00 00 00 00 00 00 00 00 00 00 00
       0.0 0.0 0.0 0.0
0000a0 00 00 00 00 00 00 00 00 00 00 00 00 00 00 00 00
       0.0 0.0 0.0 0.0
0000b0 00 00 00 00 00 00 00 00 00 00 00 00 00 00 00 00
       0.0 0.0 0.0 0.0
0000c0 00 00 00 00 00 00 00 00 00 00 00 00 00 00 00 00
       0.0 0.0 0.0 0.0
0000d0 00 00 00 00 00 00 00 00 00 00 00 00 00 00 00 00
       0.0 0.0 0.0 0.0
0000e0 00 00 00 00 00 00 00 00 00 00 00 00 00 00 00 00
       0.0 0.0 0.0 0.0
0000f0 00 00 00 00 00 00 00 00 00 00 00 00 00 00 00 00
       0.0 0.0 0.0 0.0
000100 00 00 00 00 00 00 00 00 00 00 00 00 00 00 00 00
       0.0 0.0 0.0 0.0
000110 00 00 00 00 00 00 00 00 00 00 00 00 00 00 00 00
       0.0 0.0 0.0 0.0
000120 00 00 00 00 00 00 00 00 00 00 00 00 00 00 00 00
       0.0 0.0 0.0 0.0
000130 00 00 00 00 00 00 00 00 00 00 00 00 00 00 00 00
       0.0 0.0 0.0 0.0
000140 00 00 00 00 00 00 00 00 00 00 00 00 00 00 00 00
       0.0 0.0 0.0 0.0
000150 00 00 00 00 00 00 00 00 00 00 00 00 00 00 00 00
       0.0 0.0 0.0 0.0
000160 00 00 00 00 00 00 00 00 00 00 00 00 00 00 00 00
       0.0 0.0 0.0 0.0
000170 00 00 00 00 00 00 00 00 00 00 00 00 00 00 00 00
       0.0 0.0 0.0 0.0
000180 00 00 00 00 00 00 00 00 00 00 00 00 00 00 00 00
       0.0 0.0 0.0 0.0
000190 00 00 00 00 00 00 00 00 00 00 00 00 00 00 00 00
       0.0 0.0 0.0 0.0
0001a0 00 00 00 00 00 00 00 00 00 00 00 00 00 00 00 00
       0.0 0.0 0.0 0.0
0001b0 00 00 00 00 00 00 00 00 00 00 00 00 00 00 00 00
       0.0 0.0 0.0 0.0
0001c0 00 00 00 00
       0.0

model.tabnet.initial_bn.running_mean f4 [113]
000000 00 00 00 00 00 00 00 00 00 00 00 00 00 00 00 00
       0.0 0.0 0.0 0.0
000010 00 00 00 00 00 00 00 00 00 00 00 00 00 00 00 00
       0.0 0.0 0.0 0.0
000020 00 00 00 00 00 00 00 00 00 00 00 00 00 00 00 00
       0.0 0.0 0.0 0.0
000030 00 00 00 00 00 00 00 00 00 00 00 00 00 00 00 00
       0.0 0.0 0.0 0.0
000040 00 00 00 00 00 00 00 00 00 00 00 00 00 00 00 00
       0.0 0.0 0.0 0.0
000050 00 00 00 00 00 00 00 00 00 00 00 00 00 00 00 00
       0.0 0.0 0.0 0.0
000060 00 00 00 00 00 00 00 00 00 00 00 00 00 00 00 00
       0.0 0.0 0.0 0.0
000070 00 00 00 00 00 00 00 00 00 00 00 00 00 00 00 00
       0.0 0.0 0.0 0.0
000080 00 00 00 00 00 00 00 00 00 00 00 00 00 00 00 00
       0.0 0.0 0.0 0.0
000090 00 00 00 00 00 00 00 00 00 00 00 00 00 00 00 00
       0.0 0.0 0.0 0.0
0000a0 00 00 00 00 00 00 00 00 00 00 00 00 00 00 00 00
       0.0 0.0 0.0 0.0
0000b0 00 00 00 00 00 00 00 00 00 00 00 00 00 00 00 00
       0.0 0.0 0.0 0.0
0000c0 00 00 00 00 00 00 00 00 00 00 00 00 00 00 00 00
       0.0 0.0 0.0 0.0
0000d0 00 00 00 00 00 00 00 00 00 00 00 00 00 00 00 00
       0.0 0.0 0.0 0.0
0000e0 00 00 00 00 00 00 00 00 00 00 00 00 00 00 00 00
       0.0 0.0 0.0 0.0
0000f0 00 00 00 00 00 00 00 00 00 00 00 00 00 00 00 00
       0.0 0.0 0.0 0.0
000100 00 00 00 00 00 00 00 00 00 00 00 00 00 00 00 00
       0.0 0.0 0.0 0.0
000110 00 00 00 00 00 00 00 00 00 00 00 00 00 00 00 00
       0.0 0.0 0.0 0.0
000120 00 00 00 00 00 00 00 00 00 00 00 00 00 00 00 00
       0.0 0.0 0.0 0.0
000130 00 00 00 00 00 00 00 00 00 00 00 00 00 00 00 00
       0.0 0.0 0.0 0.0
000140 00 00 00 00 00 00 00 00 00 00 00 00 00 00 00 00
       0.0 0.0 0.0 0.0
000150 00 00 00 00 00 00 00 00 00 00 00 00 00 00 00 00
       0.0 0.0 0.0 0.0
000160 00 00 00 00 00 00 00 00 00 00 00 00 00 00 00 00
       0.0 0.0 0.0 0.0
000170 00 00 00 00 00 00 00 00 00 00 00 00 00 00 00 00
       0.0 0.0 0.0 0.0
000180 00 00 00 00 00 00 00 00 00 00 00 00 00 00 00 00
       0.0 0.0 0.0 0.0
000190 00 00 00 00 00 00 00 00 00 00 00 00 00 00 00 00
       0.0 0.0 0.0 0.0
0001a0 00 00 00 00 00 00 00 00 00 00 00 00 00 00 00 00
       0.0 0.0 0.0 0.0
0001b0 00 00 00 00 00 00 00 00 00 00 00 00 00 00 00 00
       0.0 0.0 0.0 0.0
0001c0 00 00 00 00
       0.0

model.tabnet.initial_bn.running_var f4 [113]
000000 00 00 80 3f 00 00 80 3f 00 00 80 3f 00 00 80 3f
       1.0 1.0 1.0 1.0
000010 00 00 80 3f 00 00 80 3f 00 00 80 3f 00 00 80 3f
       1.0 1.0 1.0 1.0
000020 00 00 80 3f 00 00 80 3f 00 00 80 3f 00 00 80 3f
       1.0 1.0 1.0 1.0
000030 00 00 80 3f 00 00 80 3f 00 00 80 3f 00 00 80 3f
       1.0 1.0 1.0 1.0
000040 00 00 80 3f 00 00 80 3f 00 00 80 3f 00 00 80 3f
       1.0 1.0 1.0 1.0
000050 00 00 80 3f 00 00 80 3f 00 00 80 3f 00 00 80 3f
       1.0 1.0 1.0 1.0
000060 00 00 80 3f 00 00 80 3f 00 00 80 3f 00 00 80 3f
       1.0 1.0 1.0 1.0
000070 00 00 80 3f 00 00 80 3f 00 00 80 3f 00 00 80 3f
       1.0 1.0 1.0 1.0
000080 00 00 80 3f 00 00 80 3f 00 00 80 3f 00 00 80 3f
       1.0 1.0 1.0 1.0
000090 00 00 80 3f 00 00 80 3f 00 00 80 3f 00 00 80 3f
       1.0 1.0 1.0 1.0
0000a0 00 00 80 3f 00 00 80 3f 00 00 80 3f 00 00 80 3f
       1.0 1.0 1.0 1.0
0000b0 00 00 80 3f 00 00 80 3f 00 00 80 3f 00 00 80 3f
       1.0 1.0 1.0 1.0
0000c0 00 00 80 3f 00 00 80 3f 00 00 80 3f 00 00 80 3f
       1.0 1.0 1.0 1.0
0000d0 00 00 80 3f 00 00 80 3f 00 00 80 3f 00 00 80 3f
       1.0 1.0 1.0 1.0
0000e0 00 00 80 3f 00 00 80 3f 00 00 80 3f 00 00 80 3f
       1.0 1.0 1.0 1.0
0000f0 00 00 80 3f 00 00 80 3f 00 00 80 3f 00 00 80 3f
       1.0 1.0 1.0 1.0
000100 00 00 80 3f 00 00 80 3f 00 00 80 3f 00 00 80 3f
       1.0 1.0 1.0 1.0
000110 00 00 80 3f 00 00 80 3f 00 00 80 3f 00 00 80 3f
       1.0 1.0 1.0 1.0
000120 00 00 80 3f 00 00 80 3f 00 00 80 3f 00 00 80 3f
       1.0 1.0 1.0 1.0
000130 00 00 80 3f 00 00 80 3f 00 00 80 3f 00 00 80 3f
       1.0 1.0 1.0 1.0
000140 00 00 80 3f 00 00 80 3f 00 00 80 3f 00 00 80 3f
       1.0 1.0 1.0 1.0
000150 00 00 80 3f 00 00 80 3f 00 00 80 3f 00 00 80 3f
       1.0 1.0 1.0 1.0
000160 00 00 80 3f 00 00 80 3f 00 00 80 3f 00 00 80 3f
       1.0 1.0 1.0 1.0
000170 00 00 80 3f 00 00 80 3f 00 00 80 3f 00 00 80 3f
       1.0 1.0 1.0 1.0
000180 00 00 80 3f 00 00 80 3f 00 00 80 3f 00 00 80 3f
       1.0 1.0 1.0 1.0
000190 00 00 80 3f 00 00 80 3f 00 00 80 3f 00 00 80 3f
       1.0 1.0 1.0 1.0
0001a0 00 00 80 3f 00 00 80 3f 00 00 80 3f 00 00 80 3f
       1.0 1.0 1.0 1.0
0001b0 00 00 80 3f 00 00 80 3f 00 00 80 3f 00 00 80 3f
       1.0 1.0 1.0 1.0
0001c0 00 00 80 3f
       1.0

model.tabnet.encoder.initial_bn.weight f4 [113]
000000 72 23 86 3f df 5e 85 3f 4e 94 81 3f c0 0b 8f 3f
       1.0479567 1.0419577 1.0123384 1.1175461
000010 79 3c 76 3f 34 1f 81 3f 52 29 76 3f ce b9 87 3f
       0.96186024 1.0087647 0.961568 1.0603578
000020 9b 7a 75 3f e3 e2 93 3f 3f 62 84 3f 21 c6 7a 3f
       0.95890206 1.1553615 1.0342482 0.9795857
000030 84 bb 88 3f fd 99 7b 3f 5c e4 86 3f dd 5e 76 3f
       1.0682225 0.9828184 1.053844 0.962385
000040 53 ed 8c 3f 64 c8 81 3f 6f 6c 68 3f 49 5c 6f 3f
       1.1009926 1.0139279 0.90790457 0.9350019
000050 9f a5 7d 3f e0 ac 89 3f 43 11 87 3f 51 b8 7e 3f
       0.9908084 1.0755882 1.0552143 0.99499995
000060 be b9 89 3f 9d 4a 8f 3f 6b c9 87 3f 20 ea 6d 3f
       1.0759809 1.1194645 1.0608343 0.9293537
000070 7e e9 85 3f 3a 34 5c 3f 37 0d 80 3f 0d 20 83 3f
       1.0461881 0.8601719 1.0004033 1.0244156
000080 c6 6a 70 3f b0 54 84 3f 72 ad 7d 3f 4c 54 71 3f
       0.93912923 1.0338345 0.9909278 0.9426925
000090 b2 83 7c 3f 2a 31 7b 3f 90 68 6a 3f a0 0c 67 3f
       0.9863845 0.98121893 0.915658 0.9025364
0000a0 8f 62 7d 3f 88 f3 6f 3f 6c 2a 86 3f 8a f1 6e 3f
       0.98978513 0.93730974 1.0481696 0.9333731
0000b0 13 f3 80 3f 56 8d 84 3f d7 47 88 3f bb 5a 65 3f
       1.007418 1.0355632 1.0646924 0.8959157
0000c0 15 d1 84 3f 57 ff 7d 3f af e2 85 3f c2 13 88 3f
       1.0376307 0.9921774 1.0459803 1.063103
0000d0 d6 7b 88 3f 6e 39 87 3f 35 56 6c 3f 99 1b 71 3f
       1.0662792 1.0564401 0.9231904 0.94182736
0000e0 84 fc 7b 3f 00 f5 81 3f 83 26 7e 3f de 2a 7d 3f
       0.98432183 1.0152893 0.99277514 0.98893535
0000f0 0e ec 81 3f f8 68 79 3f 80 fb 7b 3f 19 68 74 3f
       1.0150163 0.97425795 0.98430634 0.9547134
000100 7e 25 83 3f a1 29 78 3f fc d5 90 3f 35 83 8c 3f
       1.0245817 0.9693852 1.1315303 1.0977541
000110 3c 88 70 3f 70 a4 84 3f f4 a4 7c 3f 6c 12 86 3f
       0.9395788 1.0362682 0.986892 1.0474372
000120 66 62 89 3f 81 68 81 3f 4c 99 5a 3f 01 d9 84 3f
       1.0733154 1.0110017 0.8539016 1.0378724
000130 7e 93 67 3f ac b1 85 3f e5 1f 7b 3f cb 61 78 3f
       0.9045943 1.0444846 0.9809554 0.9702422
000140 49 8c 8b 3f 6e f7 8a 3f 5c 9a 82 3f b9 74 81 3f
       1.0902187 1.085676 1.0203357 1.0113746
000150 63 1e 82 3f 1f c2 65 3f bf 4e 74 3f a4 30 72 3f
       1.0165523 0.8974933 0.95432657 0.9460547
000160 d9 a9 79 3f 68 55 74 3f df 94 7c 3f e1 e9 7f 3f
       0.9752479 0.9544282 0.9866466 0.99966246
000170 a3 7d 8b 3f 07 43 6d 3f 6e 25 86 3f c6 cb 79 3f
       1.0897716 0.926804 1.0480173 0.9757656
000180 08 e8 7f 3f bd 3f 7d 3f 30 65 73 3f 74 33 80 3f
       0.99963427 0.9892538 0.95076275 1.0015702
000190 e1 51 80 3f 20 16 88 3f a6 7c 6a 3f cb fb 84 3f
       1.0024987 1.0631752 0.9159645 1.0389341
0001a0 31 83 83 3f ed 36 85 3f 9b d4 6c 3f ca eb 75 3f
       1.0274411 1.0407387 0.9251191 0.9606291
0001b0 32 df 7e 3f a3 cd 81 3f d6 41 60 3f af 88 65 3f
       0.9955932 1.014088 0.8760046 0.8966169
0001c0 a2 ba 74 3f
       0.9559728

model.tabnet.encoder.initial_bn.bias f4 [113]
000000 0e b7 94 3c 3e 70 68 bd e0 48 ab 3c 30 04 ce bd
       0.018153694 -0.056747667 0.020908773 -0.100593925
000010 7c 63 23 3d a3 d5 99 bd 7d c9 b2 3d 2a 2f 6e bd
       0.039889798 -0.07511451 0.08729837 -0.058150448
000020 36 10 ac bb 99 99 11 3c 83 4e d5 bb 99 5d 02 bd
       -0.005250956 0.008886718 -0.0065096035 -0.031827543
000030 3b 39 09 3d f6 01 44 bd ae c2 af bc 94 a6 9a 3c
       0.033501845 -0.047853433 -0.021455135 0.018878259
000040 db 11 4b 3d 70 f1 17 3d e4 89 54 3b 11 8f cf 3d
       0.049577575 0.037095487 0.0032430822 0.101347096
000050 17 16 4a 3d a9 68 23 bd 7c 1c 0f 3b a3 f0 e9 bd
       0.049337473 -0.039894734 0.0021837046 -0.11422851
000060 05 ea 11 bd 82 21 26 3d 3d 42 c5 3d 13 52 80 3d
       -0.03562357 0.0405593 0.096317746 0.062656544
000070 00 c9 54 bd 08 ef 90 3d 78 13 48 3d 3d 2e 22 3c
       -0.0519495 0.070768416 0.04884669 0.009898719
000080 35 a6 39 3d 1a 60 c6 3a 57 98 ed 3b 86 13 73 bd
       0.045324523 0.0015134842 0.0072508263 -0.05934479
000090 30 31 53 bd fb 81 72 bc 6b 69 ed 3c 34 24 a5 bd
       -0.05156058 -0.014801498 0.028980931 -0.08063546
0000a0 5b 94 56 ba 9f b1 de 3c 27 97 7b bd a9 87 4b 3d
       -0.0008185559 0.027184306 -0.061423447 0.049689922
0000b0 3d ba 84 bc 9b df 6d 3d fc 0b 5a 3d 52 64 21 bd
       -0.016202087 0.058074575 0.053234085 -0.039402314
0000c0 42 ba 53 3a 8b cb 06 bd f3 62 0e 3c 75 46 c3 bd
       0.0008076766 -0.032908957 0.0086905835 -0.09534923
0000d0 ce f3 47 bd 51 a1 61 3d 27 5d 31 3d 0a 2c 71 3d
       -0.048816495 0.055085484 0.043301728 0.05887989
0000e0 79 2a 92 3d 41 32 78 bd 0e 70 28 be f1 15 1e bd
       0.07137007 -0.0605948 -0.16448995 -0.038595144
0000f0 be fa a7 bd 02 c7 37 bc 9d 31 f7 bc 29 49 8f bd
       -0.08202122 -0.011216881 -0.030175025 -0.06996376
000100 cb 07 4e 3d 40 5b e6 3c de 33 65 3c 6a 8e aa bc
       0.0503004 0.028119683 0.013989417 -0.020819861
000110 f1 9c 8e 3b ac a6 ed 3c 80 ec 13 bc 60 54 7c bd
       0.004352205 0.02901014 -0.009028554 -0.061603904
000120 5d 99 a6 bd 1b 47 71 3d e6 03 2a 3d 9a 18 e0 bc
       -0.081347205 0.058905702 0.041507624 -0.027355481
000130 05 96 5a 3c b9 f4 15 bd f0 8d 99 bd 7d 20 df bc
       0.0133414315 -0.03661034 -0.074977756 -0.027237171
000140 0a 5e e8 bc 96 f7 04 3d 0e 2c e6 3d d1 66 3f 3c
       -0.028365154 0.03246268 0.112388715 0.011682228
000150 4b a0 9b 3d c2 77 88 3d 3f 5b cc 3c f1 33 8d bc
       0.07598933 0.06663467 0.024945853 -0.017236682
000160 db 34 a6 3c c9 c2 f9 bb 83 1f b6 bb d3 9f d1 bd
       0.020288875 -0.007622097 -0.0055579557 -0.10235562
000170 68 97 9b bd e6 7b 32 bc a6 4c 9e bd 21 69 80 bd
       -0.07597238 -0.0108937975 -0.07729463 -0.06270052
000180 ab e7 a4 3c e2 12 e1 3c 47 7b e0 3c 32 40 9a bd
       0.02013 0.027474824 0.027402533 -0.075317755
000190 ab 45 93 bc 65 57 68 bd fe 1c ad 3d 8d 5e 4b 3d
       -0.017977556 -0.05672397 0.084527954 0.049650718
0001a0 8c 91 52 bd f0 d5 2a bd b2 c2 8d 3d 3a a4 0d bc
       -0.051408336 -0.041707933 0.06921901 -0.008645112
0001b0 d6 1f 80 3d de 33 0e bd 5f e8 51 3d d7 23 c5 3d
       0.06256072 -0.034717433 0.051246997 0.096259765
0001c0 3d ac 27 bd
       -0.040935744

model.tabnet.encoder.initial_bn.running_mean f4 [113]
000000 fa 7b 12 be e2 ac 33 bd dd 1c e7 bd 03 83 5f bd
       -0.14305106 -0.043866046 -0.11284802 -0.054568302
000010 f1 66 47 3e c7 c4 98 be cc ae 8d 3c 6f dc 8c 3d
       0.19472863 -0.2983763 0.017295264 0.06877982
000020 25 d0 93 bd 72 b9 08 be 39 9e 40 bc 53 fc 6b 3d
       -0.07217435 -0.13351992 -0.011756473 0.057613682
000030 1f f8 19 be 25 1d f9 bd 4e 7a 8e 3d 29 f8 1b be
       -0.15036057 -0.12163762 0.069569215 -0.15231384
000040 54 62 81 3c 96 df 22 bd ef 41 4b bd 31 b2 90 bd
       0.015793957 -0.03976401 -0.049623426 -0.07065237
000050 5c cf b5 bc dc 9b 54 bd 52 21 eb bc ae c1 11 3c
       -0.022193603 -0.05190645 -0.028702412 0.0088962745
000060 99 a1 fb 3d 31 56 6b b9 f1 5a ca 3d b0 62 b4 3c
       0.12286682 -0.00022443455 0.09880627 0.022019714
000070 17 a6 64 3d 28 7b 92 3c 2d 93 2b 3d e8 bc 2a bc
       0.055822458 0.017880991 0.041888405 -0.010421015
000080 33 39 ca bd 42 ce 74 3e cb bb 0f 3e 61 7d 5f 3e
       -0.09874191 0.23906806 0.14036481 0.21825172
000090 db c0 9e 3e 0b 03 03 3e a7 67 1b 3e 01 69 bd 3d
       0.31006512 0.1279413 0.15176259 0.092485435
0000a0 b8 28 66 3e 6f 2f 4e be 28 44 96 3d f0 9a a7 3d
       0.2247647 -0.20135282 0.073372185 0.08183849
0000b0 35 06 5e be bc 31 0f 3e a5 58 a5 3e e4 56 86 3d
       -0.21682055 0.13983816 0.32294193 0.06559542
0000c0 bc cb 2e bd 33 5d a7 bd 86 0d 90 3d 72 d5 00 be
       -0.042674765 -0.08172073 0.070338294 -0.12581423
0000d0 f7 a9 e7 3d ec 07 a4 bb 3d dc 07 3e 9c 13 fa bc
       0.11311715 -0.005005827 0.13267608 -0.030526929
0000e0 13 b7 8a be 95 84 65 bd a1 b4 c2 3d 35 a2 e9 3d
       -0.270928 -0.056034643 0.095071085 0.11407892
0000f0 35 59 82 3e c4 6a ab bd 63 a8 4d be 21 4f 20 be
       0.25458685 -0.08369973 -0.20083766 -0.15655185
000100 dd 56 8b bb 3e de 85 ba 28 aa c9 3a 1c ee 54 bb
       -0.0042522983 -0.0010213328 0.0015385794 -0.0032490557
000110 d9 92 62 bb bc 01 fc bb 4d 9f 81 38 da 0c 96 3b
       -0.0034572391 -0.0076906364 6.1808714e-05 0.0045791687
000120 bd 99 05 bd 00 4e cd bc 7e 56 56 bb 85 f3 02 3c
       -0.03261732 -0.025061607 -0.0032705362 0.00799263
000130 0b e3 f6 bc 75 10 83 b9 50 32 98 3c 6b 48 11 bc
       -0.03013756 -0.00024998529 0.018578678 -0.008867363
000140 b8 10 f5 3d e4 04 42 3e 7d de 80 3a 8e 71 81 3e
       0.119660795 0.18947178 0.0009831932 0.25281948
000150 ed 0d c1 bc 85 e5 b4 bd de ef c7 3d 92 0d 9b be
       -0.02356621 -0.0883284 0.09762548 -0.3028379
000160 7d 60 06 be c5 7f 26 3e 96 34 e6 bd 83 b7 f0 3d
       -0.13122745 0.16259678 -0.11240499 0.11753752
000170 06 e5 9f be 1b 5f 95 3d bb 49 d8 3c 3a 15 e9 3e
       -0.3122942 0.072935306 0.026402345 0.45524007
000180 fb 93 ec bd ff 45 59 be c7 22 23 3c e2 1b c8 bc
       -0.115516625 -0.21218108 0.009957022 -0.024427358
000190 4b 9e 77 3e 9d a1 06 ba ad fe 6f 3d 87 50 d1 bd
       0.24181478 -0.00051357766 0.058592487 -0.102204375
0001a0 25 f9 ea bd 95 54 02 3e 34 0b f8 bd 00 ec 15 3e
       -0.11473302 0.12727578 -0.12111512 0.14640808
0001b0 64 4e 56 be 14 31 38 be e3 0c f0 3c 4b a5 bf bd
       -0.20928341 -0.17987472 0.02930302 -0.09357699
0001c0 25 99 09 3a
       0.00052489556
